----------------------------------------------------------------
        Layer (type)               Output Shape         Param #
================================================================
            Conv2d-1            [-1, 6, 28, 28]             156
              Tanh-2            [-1, 6, 28, 28]               0
         AvgPool2d-3            [-1, 6, 14, 14]               0
              Tanh-4            [-1, 6, 14, 14]               0
            Conv2d-5           [-1, 16, 10, 10]           2,416
              Tanh-6           [-1, 16, 10, 10]               0
         AvgPool2d-7             [-1, 16, 5, 5]               0
              Tanh-8             [-1, 16, 5, 5]               0
            Conv2d-9            [-1, 120, 1, 1]          48,120
             Tanh-10            [-1, 120, 1, 1]               0
           Linear-11                   [-1, 84]          10,164
             Tanh-12                   [-1, 84]               0
           Linear-13                   [-1, 10]             850
================================================================
Total params: 61,706
Trainable params: 61,706
Non-trainable params: 0
----------------------------------------------------------------
Input size (MB): 0.00
Forward/backward pass size (MB): 0.12
Params size (MB): 0.24
Estimated Total Size (MB): 0.36
----------------------------------------------------------------
Epoch: 0, Validation Top 1 acc: 10.718550682067871
…
