Using TensorFlow backend.
_________________________________________________________________
Layer (type)                 Output Shape              Param #   
=================================================================
conv2d_1 (Conv2D)            (None, 28, 28, 6)         156       
_________________________________________________________________
average_pooling2d_1 (Average (None, 14, 14, 6)         0         
_________________________________________________________________
activation_1 (Activation)    (None, 14, 14, 6)         0         
_________________________________________________________________
conv2d_2 (Conv2D)            (None, 10, 10, 16)        2416      
_________________________________________________________________
average_pooling2d_2 (Average (None, 5, 5, 16)          0         
_________________________________________________________________
activation_2 (Activation)    (None, 5, 5, 16)          0         
_________________________________________________________________
flatten_1 (Flatten)          (None, 400)               0         
_________________________________________________________________
dense_1 (Dense)              (None, 120)               48120     
_________________________________________________________________
dense_2 (Dense)              (None, 84)                10164     
_________________________________________________________________
dense_3 (Dense)              (None, 10)                850       
=================================================================
Total params: 61,706
Trainable params: 61,706
Non-trainable params: 0
_________________________________________________________________
Train on 60000 samples, validate on 10000 samples
2019-01-06 20:45:53.044642: I tensorflow/core/platform/cpu_feature_guard.cc:141] Your CPU supports instructions that this TensorFlow binary was not compiled to use: AVX2 FMA
…
