----------------------------------------------------------------
        Layer (type)               Output Shape         Param #
================================================================
            Conv2d-1            [-1, 6, 28, 28]             156
         AvgPool2d-2            [-1, 6, 14, 14]               0
           Sigmoid-3            [-1, 6, 14, 14]               0
            Conv2d-4           [-1, 16, 10, 10]           2,416
         AvgPool2d-5             [-1, 16, 5, 5]               0
           Sigmoid-6             [-1, 16, 5, 5]               0
            Linear-7                  [-1, 120]          48,120
              Tanh-8                  [-1, 120]               0
            Linear-9                   [-1, 84]          10,164
             Tanh-10                   [-1, 84]               0
           Linear-11                   [-1, 10]             850
================================================================
Total params: 61,706
Trainable params: 61,706
Non-trainable params: 0
----------------------------------------------------------------
Input size (MB): 0.00
Forward/backward pass size (MB): 0.08
Params size (MB): 0.24
Estimated Total Size (MB): 0.31
----------------------------------------------------------------
Epoch: 0, Validation Top 1 acc: 9.481609344482422
…
